gpt-lora/adapter_model.bin (torch, 162236 bytes, 25 tensors)

base_model.model.transformer.h.0.attn.c_attn.lora_A.weight f4 [1, 768]
000000 9e f9 a3 ba ec 2b 1b 3b 85 dd 02 bc de af 1b 3d
       -0.0012510305 0.0023677303 -0.007987385 0.038009517
000010 fa 3b cb 3b 33 fd c3 3c e8 1c e5 3c af 25 e7 bc
       0.006202218 0.023924446 0.027967885 -0.028216211
000020 76 29 09 3c 56 16 00 3d e6 87 b1 3c e7 a4 96 bc
       0.008371701 0.0312713 0.021671247 -0.018389178
000030 25 44 d4 3c 36 95 82 bc 58 d6 c7 bc ed 82 93 3c
       0.0259114 -0.01594029 -0.0243942 0.018006766
000040 fc e4 82 bc ec 87 00 bd 14 2f e9 3b 31 7e 98 bb
       -0.015978329 -0.031379625 0.007116208 -0.004653715
000050 f8 b7 9d 3c 69 c5 82 bb d5 2a d4 bb 70 db 67 3c
       0.019252762 -0.0039908183 -0.0064748325 0.014151439
000060 8c 65 0a 3d 75 7d c8 3c 77 b6 5a bc 4d 44 b7 3c
       0.03378825 0.024473885 -0.013349167 0.022371436
000070 74 96 81 bc 17 9d 7f bb 2f 55 07 3d 99 fd d7 3c
       -0.015818812 -0.0039003545 0.03304022 0.026366042
000080 c3 ea 9d 3c 2b 18 ce bb fa 75 f0 bc 81 71 99 bb
       0.019276982 -0.006289502 -0.02935313 -0.00468272
000090 47 36 12 3d 74 e7 a0 bc 8b e7 ee 3c b0 ff 4b 3b
       0.035696294 -0.019641615 0.029163143 0.0031127743
0000a0 eb 7b 73 bc 05 86 66 bc c9 57 3d 3c 61 c3 12 3d
       -0.014861087 -0.014070039 0.011556574 0.03583086
0000b0 ce 5d 7e bc f4 00 67 3c ef 64 3b bc cc 0c 0e bd
       -0.0155252945 0.014099348 -0.011437639 -0.034680173
0000c0 f0 85 ed bc 4f 43 be bc 6b 5d aa bc 64 3f 04 3c
       -0.02899453 -0.023225455 -0.020796498 0.008071754
0000d0 8b 16 bc 3c 6b 6a b0 3c 98 80 00 3c 42 fe 15 bd
       0.022959968 0.021535119 0.007843159 -0.036619432
0000e0 04 56 dd bb 63 8d d1 bc d5 dc 46 bc f9 75 4d bc
       -0.0067546386 -0.025580114 -0.012137611 -0.012540334
0000f0 e4 83 d0 bc 2d 32 bb ba d0 15 f1 bc ca 46 f5 3c
       -0.025453515 -0.0014281921 -0.029429346 0.029940981
000100 e7 ca ae bc 9d 8e e2 38 6a e3 e6 bc 12 bc 25 bc
       -0.021336986 0.000108030836 -0.028184611 -0.01011564
000110 f2 b8 b7 3c 2f b6 dc 3b e6 22 9b bc 38 48 a4 3b
       0.022427056 0.006735585 -0.01893754 0.005013492
000120 a9 28 17 3d 23 2e c2 3c e7 dc 0c 3d a2 72 8f bb
       0.03690401 0.02370364 0.034390356 -0.004377679
000130 dc d4 dd bc f7 3a 43 3c cb 60 c9 bc 8e c1 04 3d
       -0.027079038 0.011915914 -0.024582287 0.03241115
000140 2f 4e e3 39 53 c7 00 3d 60 c2 10 3d 8b 9e be bc
       0.00043355065 0.03144009 0.03534162 -0.023268959
000150 a2 01 ef bc c1 cb 4b 39 46 44 b0 3c 50 65 b6 bc
       -0.029175583 0.00019435493 0.02151693 -0.022265106
000160 59 87 68 bc 37 9e a7 bc 6f c0 a1 bc 32 4d f8 bc
       -0.014192426 -0.020461185 -0.01974508 -0.030310247
000170 66 ba 66 bb fe 30 d8 3c ef 72 a7 3c 75 48 6f 3a
       -0.0035206317 0.026390549 0.020440547 0.00091279234
000180 f4 e9 bd bc 3e 54 81 3c 8c 2c b4 bc e7 3c af 3c
       -0.023182847 0.01578724 -0.021993898 0.021391345
000190 af d8 10 bc 71 53 0c 3c b6 1e 6b 3a 50 73 5f 3c
       -0.008840724 0.008564816 0.0008969115 0.0136383325
0001a0 3d 80 73 bc f7 1b 68 bc c6 4a 69 3b c6 bd 85 bc
       -0.014862117 -0.014166824 0.0035597547 -0.016325843
0001b0 a0 f5 e1 3c a5 38 48 3b 90 6c e4 bc 58 1c 87 bc
       0.027582943 0.003055134 -0.027883798 -0.016493008
0001c0 7b 71 4d 3c 12 b5 a9 3c 3d 81 18 bc 28 06 a3 3c
       0.012539263 0.020716224 -0.009308157 0.019900396
0001d0 df f6 03 3d 75 68 7e 3a 3a 2f a7 39 1e 09 f4 b9
       0.032217856 0.00097048964 0.0003188791 -0.000465461
0001e0 88 42 a5 3c ef f8 0d bc 26 c4 f6 3b 66 a5 56 3c
       0.020173326 -0.008665307 0.007530707 0.0131009575
0001f0 2e fe cd bc ed e2 b0 3c 4d 9a 99 3c b6 0d 87 ba
       -0.025145616 0.021592582 0.018750334 -0.0010303769
000200 bd 46 b0 bc 13 16 d6 ba a1 e1 b8 3c 01 7f 25 bc
       -0.021518106 -0.0016333483 0.022568526 -0.010101081
000210 65 f0 97 bc f8 52 03 bd 55 69 22 3c 46 66 84 bc
       -0.018547246 -0.032061547 0.009912808 -0.016162049
000220 1d 42 19 bc 1f 06 1e bc 71 04 c7 bc 17 8e 25 3d
       -0.009354142 -0.009645014 -0.02429411 0.04041871
000230 bd 5f e7 3c 32 e6 e3 3c 6e 3d e4 3b 49 07 39 bc
       0.028243894 0.027819727 0.006965331 -0.011293241
000240 d4 ea 25 3c 3f af 05 3d 2f 77 df b9 90 37 e7 3c
       0.010126788 0.03263783 -0.00042622673 0.028224736
000250 3f 9e 81 bc 6d 03 5e bc 3f 58 ba bc 8e 68 9d bc
       -0.015822528 -0.013550621 -0.022747157 -0.019214895
000260 12 48 8f bc 09 1d 22 bc ae 8c 60 3a b3 42 85 3c
       -0.01749042 -0.009894618 0.0008565885 0.016267156
000270 d5 2f 8a 3a ba 25 c1 bb e0 66 d5 3b 16 93 e0 38
       0.001054282 -0.00589439 0.006512508 0.00010708549
000280 0e 84 b9 bb 3e ff 87 bc fe 8b 54 3c dc 7c 83 ba
       -0.005661494 -0.016601201 0.01297283 -0.0010031718
000290 c5 0d f7 3c 6b f7 4f 3c 63 12 e1 bc 63 90 84 3c
       0.030157933 0.012693266 -0.027474588 0.01618213
0002a0 d7 b5 cf 3c 99 24 c5 bc c0 53 84 3c 59 e0 bd 3c
       0.025355263 -0.024065303 0.016153216 0.023178266
0002b0 4b 18 d1 bc e9 cb a7 bb 5b 46 94 bb f2 84 9b ba
       -0.02552428 -0.0051207435 -0.0045249886 -0.0011865182
0002c0 c2 15 45 ba b6 ce 2e bc 56 86 96 bc 44 ee 9b 3b
       -0.0007518196 -0.010669401 -0.018374603 0.004758628
0002d0 e2 56 c6 3c 7e 4c ce 3a af 87 28 bb 1e 1c 9c 3b
       0.02421135 0.0015739349 -0.002571564 0.004764094
0002e0 66 35 5b 3c 07 10 de 3c d5 78 ad 3c 64 04 00 bd
       0.01337943 0.027107252 0.021175781 -0.031254187
0002f0 b3 36 9f bc 7d ee 3a bb 3e 88 b1 3c 6f f3 e0 bb
       -0.019435262 -0.0028523498 0.02167141 -0.006864957
000300 fe d6 c8 3b c8 69 e3 3c f0 1a 2b 3a a2 de 0e bc
       0.0061291447 0.027760401 0.00065271463 -0.008720072
000310 28 42 8f 3c 2d 39 d5 3c fc b1 e2 39 b6 28 63 bc
       0.0174876 0.02602824 0.00043238688 -0.013864687
000320 c3 e2 1f bc 32 56 cd 3c 6e 38 42 bc ae c7 b3 3c
       -0.009758654 0.025065515 -0.011854274 0.0219458
000330 34 ef ac bc 7d e7 78 3c 41 a0 a1 3c 73 c8 cb 3c
       -0.021110155 0.01519191 0.019729735 0.024875855
000340 41 8d ae bc c1 13 ff 3c 51 bc c9 ba fd 4a ac bc
       -0.02130759 0.03113735 -0.0015391206 -0.021031851
000350 6a 0d 36 bc 95 91 2a bd da dd 28 3c 92 0d a7 bc
       -0.011111597 -0.041642744 0.0103068 -0.020392213
000360 f4 3d 39 bc 5c f4 29 3c ae 26 ca bb 08 a8 4a bc
       -0.011306275 0.010373201 -0.0061691618 -0.012369163
000370 a9 7d ea 3b f3 a1 cb bc 1a 23 f5 3c 33 b0 b7 3c
       0.007156093 -0.024857497 0.029923964 0.022422886
000380 26 4e 9d 3c e1 5d 8a 3c 70 57 a6 bc b3 09 ba ba
       0.019202303 0.016890468 -0.020305365 -0.0014193564
000390 79 ec 1d 3b 94 be 07 bd 26 63 73 3c 3f 54 1c bb
       0.0024097248 -0.033140734 0.014855182 -0.0023853926
0003a0 fc 34 16 3c 70 23 15 bc 55 0d 0c 3b 5a d0 45 ba
       0.009167906 -0.009102687 0.0021370251 -0.00075460004
0003b0 80 e4 85 bb a5 fb 80 3c d7 7e 11 3d 0d 99 8c 3c
       -0.004086077 0.015744993 0.035521355 0.017162824
0003c0 e0 80 91 3c c3 0d e6 bc fc 07 f2 3b 67 79 3d bc
       0.017761648 -0.028082734 0.0073862057 -0.011564589
0003d0 93 9c 1f bb d4 f0 b2 3c 6d a6 14 bd e9 7b a7 bc
       -0.00243548 0.021843351 -0.03629153 -0.020444827
0003e0 2a 7e b4 bb cf 8a ee bc 12 52 e0 3c c9 fd 09 3d
       -0.005508204 -0.029118923 0.027382884 0.033689294
0003f0 10 5d 6b 3c 76 0f 0f bc 52 a6 e9 3a 1e ff 9f bc
       0.01436545 -0.0087317135 0.0017826057 -0.019530829

base_model.model.transformer.h.0.attn.c_attn.lora_B.weight f4 [2304, 1]
000000 66 5b 42 b9 d7 08 29 3a 7c ac 52 39 31 df 1e 3a
       -0.0001853533 0.00064481556 0.00020091416 0.000606048
000010 c5 c2 28 39 ee b0 35 ba 14 3e 8f 39 86 d8 e5 b9
       0.00016094286 -0.00069309666 0.00027321337 -0.00043839606
000020 cd 1b cc 37 e3 38 ec 39 dc ec 7c b9 ea 05 16 3a
       2.433164e-05 0.00045055812 -0.0002412083 0.0005722927
000030 6b 19 17 b9 1f 79 0f 39 00 a3 cb b8 93 b8 f5 39
       -0.00014409951 0.00013682664 -9.7101554e-05 0.0004686756
000040 15 39 8d 39 0b 39 ce b8 f1 fe 9d 39 42 89 18 39
       0.00026936145 -9.8334705e-05 0.0003013532 0.00014546982
000050 9c e3 a3 b8 ff 7f 47 b9 78 71 10 b9 44 3c cd 38
       -7.814841e-05 -0.00019025801 -0.0001377518 9.786387e-05
000060 09 e0 d1 b9 b8 50 b1 39 c5 3f dc 39 43 5c eb b9
       -0.00040030506 0.0003382021 0.00042009182 -0.00044891433
000070 19 19 03 39 40 5d 5e b8 36 7e 92 b9 7d bb 9b 39
       0.00012502483 -5.301577e-05 -0.00027941325 0.00029703593
000080 c3 56 b1 b9 64 d4 bd 39 c1 d4 21 3a 14 d8 51 39
       -0.00033824713 0.00036207133 0.00061733654 0.00020012289
000090 00 2a 87 38 e0 d4 07 3a 3b 86 1d 38 d0 7e 87 39
       6.445125e-05 0.0005181562 3.755673e-05 0.0002584369
0000a0 4c ea 95 b8 d0 dc b6 36 77 59 e1 b7 44 ff 8d 39
       -7.148515e-05 5.4497286e-06 -2.686375e-05 0.00027083803
0000b0 37 ce 00 ba cc a6 24 ba 5a 4f d8 37 8d d5 16 ba
       -0.0004913541 -0.0006280958 2.5786157e-05 -0.00057538674
0000c0 7d 07 02 ba c7 05 d3 39 b9 a6 4e b8 00 e3 f2 39
       -0.0004960222 0.0004024936 -4.92695e-05 0.00046326965
0000d0 26 4a 20 38 fa b5 81 37 38 48 06 39 80 0f bb 39
       3.821603e-05 1.5462738e-05 0.0001280614 0.00035678968
0000e0 44 01 bf 38 4c 71 30 39 01 67 83 39 62 0b ca 39
       9.1078255e-05 0.00016826874 0.0002506301 0.00038536923
0000f0 cd 5d 47 ba a8 e6 d8 39 9e 24 a5 b9 26 dd 0a 3a
       -0.0007605225 0.00041370583 -0.00031498534 0.0005297236
000100 e1 f8 83 36 44 9c 0a ba 6b d8 ed 37 c9 43 85 38
       3.9330776e-06 -0.00052875676 2.835338e-05 6.35456e-05
000110 35 ce 01 b9 50 ce d1 b9 c2 d5 96 39 1d f3 c0 b9
       -0.00012379217 -0.000400173 0.00028769491 -0.00036802227
000120 1b 20 ec 39 38 2f 60 b9 47 67 4d 3a e0 0e 54 ba
       0.00045037348 -0.00021379895 0.0007835519 -0.0008089375
000130 0b fe 87 39 3c 1c 45 39 d6 7c f3 38 de ee 0a ba
       0.00025938483 0.00018797902 0.000116103954 -0.0005299876
000140 c2 3e b4 b8 62 20 24 39 be de e3 b9 ac ae 18 3a
       -8.5947584e-05 0.00015652322 -0.0004346277 0.0005824368
000150 74 7f 9a 39 cc ec 51 ba b8 a2 87 39 74 06 01 3a
       0.0002946813 -0.0008008003 0.00025870441 0.0004921921
000160 b7 cc f0 b9 81 e1 8b 38 fd b4 c3 39 55 cf e6 b9
       -0.00045928892 6.67004e-05 0.00037328145 -0.00044023493
000170 62 de 37 ba 57 0c 01 39 12 ea b7 38 83 09 47 3a
       -0.00070140336 0.00012306996 8.769719e-05 0.0007592665
000180 8f be 4f b9 11 81 5b 3a c5 85 14 3a 60 2b 10 ba
       -0.00019812047 0.00083734194 0.0005665685 -0.00054996274
000190 e7 ea 1a 3a 27 c4 f0 b9 b5 de 70 b8 6d 1c 2f ba
       0.0005909637 -0.00045922512 -5.742787e-05 -0.0006679956
0001a0 bf c7 9d 38 ae b2 12 37 19 38 60 ba 71 7c 2b 39
       7.523549e-05 8.74388e-06 -0.0008553281 0.00016354189
0001b0 cb 47 4b ba d3 39 12 3a 39 de 6a b9 91 7a 18 ba
       -0.00077545334 0.00055780745 -0.00022398763 -0.00058166037
0001c0 08 5e f2 b8 b6 03 07 3a fd c4 16 ba 9a b2 d3 b9
       -0.00011556974 0.0005150394 -0.00057513994 -0.00040378125
0001d0 14 3d 0f 38 d0 5c 0a ba 24 5b 85 38 12 d4 88 39
       3.415074e-05 -0.00052781124 6.3589105e-05 0.00026097946
0001e0 de 07 b6 38 54 ff 15 3a e5 5c 88 b8 0a fb b6 38
       8.679902e-05 0.0005721946 -6.502288e-05 8.725196e-05
0001f0 59 ac 9e b7 e7 57 36 b9 85 aa 0e 3a 09 10 0b b9
       -1.8915323e-05 -0.00017389619 0.00054422795 -0.00013262047
000200 de 79 c7 b8 53 b4 86 35 7c e5 94 b7 36 89 5f 3a
       -9.511759e-05 1.0036259e-06 -1.7749837e-05 0.0008527221
000210 65 51 e5 b8 bb 5c 91 b8 68 f1 42 b9 39 b6 58 3a
       -0.00010934732 -6.931411e-05 -0.00018591213 0.00082668994
000220 59 df 9f 39 24 f0 a7 39 fa 60 1c 39 50 11 a6 b9
       0.0003049325 0.0003203164 0.00014913446 -0.00031674886
000230 e9 60 90 39 c1 1f e0 b8 f2 2a 23 b8 a9 d9 aa 39
       0.00027538024 -0.00010687067 -3.8902224e-05 0.00032587096
000240 cb dd 60 b8 a5 3a a4 b9 8c 87 a2 b8 7d b5 4a b9
       -5.3612323e-05 -0.0003132421 -7.7500095e-05 -0.00019331831
000250 25 12 94 b9 fc 4e 30 b9 ee d3 dd 38 64 3e 95 39
       -0.00028242278 -0.00016814092 0.00010577576 0.0002846598
000260 42 49 e0 b8 06 c0 09 ba 11 3a a8 b9 e7 0b 24 39
       -0.00010694798 -0.0005254749 -0.0003208672 0.00015644693
000270 45 0d d5 39 2d 08 19 39 59 c0 ee 36 7b 2c 0a ba
       0.00040636412 0.00014594263 7.115345e-06 -0.00052709103
000280 52 70 a3 39 45 54 bb b9 b8 f2 9c 39 24 90 84 b9
       0.00031173468 -0.00035730205 0.00029935478 -0.00025284395
000290 7c 5f 97 b9 81 d4 6a b9 04 e8 0d 3a c5 cc 27 ba
       -0.00028872106 -0.00022395143 0.0005413296 -0.00064010575
0002a0 59 18 ec b9 f7 d4 29 b8 c5 e6 16 ba c1 59 bd 38
       -0.00045031568 -4.049108e-05 -0.0005756433 9.02894e-05
0002b0 5d 1b e1 b9 46 75 8c 39 8a 2a 47 38 78 72 f8 38
       -0.00042935731 0.00026790256 4.7484915e-05 0.00011846883
0002c0 ad fd ef b8 12 47 fc b8 6e 16 ee 38 49 6a 94 39
       -0.00011443659 -0.00012029534 0.00011352902 0.00028307948
0002d0 de 0d b6 b8 8f 28 48 38 d7 7d 02 b8 a8 8a 53 b9
       -8.681019e-05 4.772149e-05 -3.1111613e-05 -0.00020174182
0002e0 5d af d8 39 6e f7 fe b8 1a f6 89 3a fa c2 59 38
       0.00041329386 -0.00012157751 0.0010525614 5.1918418e-05
0002f0 85 c4 89 b9 c1 c0 a6 b8 e3 5d 23 39 21 21 a1 b8
       -0.00026277095 -7.9514e-05 0.00015579867 -7.683249e-05
000300 6b ad 43 3a bb 09 68 ba 09 bc 41 ba d7 ca 43 39
       0.0007464501 -0.00088515476 -0.0007390385 0.00018672213
000310 0a e1 12 ba d5 78 9e b9 b5 bd ef 37 85 6b e8 b9
       -0.00056029914 -0.00030226135 2.857936e-05 -0.00044330597
000320 ee 2f 27 3a 9e a0 fb 38 24 16 a7 38 47 d0 34 3a
       0.00063776865 0.0001199853 7.9673046e-05 0.0006897491
000330 46 32 a9 39 c8 88 74 39 0d fd 94 b9 e4 e4 b6 39
       0.00032271649 0.00023320608 -0.00028417297 0.00034884282
000340 c0 b8 f3 35 2e d4 da 39 62 46 05 ba 26 da d8 39
       1.815868e-06 0.00041738286 -0.0005084035 0.00041361264
000350 12 54 15 ba 0d 57 c8 39 3b c5 0d ba 8a 34 8f b8
       -0.00056964264 0.0003821183 -0.0005408113 -6.8285575e-05
000360 1a f6 87 b6 e5 fc 49 39 c7 a2 a0 38 f4 bb 65 39
       -4.0519635e-06 0.00019263064 7.659714e-05 0.0002190916
000370 cd 18 1a 37 da 28 29 ba de a3 44 b7 4f ba 5d 38
       9.18489e-06 -0.0006452926 -1.1720664e-05 5.286402e-05
000380 a0 a1 05 3a b6 35 4c b9 41 8b dd b9 99 10 6f ba
       0.00050976314 -0.00019474965 -0.00042256157 -0.00091195997
000390 8a 72 be 39 47 a1 3a 3a b8 ae 41 ba 78 d3 13 39
       0.00036324962 0.0007119369 -0.0007388401 0.0001409779
0003a0 b9 2b 73 39 ff 3e ea 37 56 62 0d b9 76 ac 3a 38
       0.00023190574 2.7924309e-05 -0.00013483441 4.4506472e-05
0003b0 12 ba 41 b9 b9 8b 12 ba 33 a5 3b ba 43 21 5a b9
       -0.00018475231 -0.00055902783 -0.00071581005 -0.00020802491
0003c0 dc e9 c9 39 46 89 d4 39 f9 9a 0e 39 56 f9 21 3a
       0.00038511946 0.00040538068 0.00013599907 0.00061788165
0003d0 7f 69 43 39 7c 61 18 b9 a5 5f fd 39 b1 70 5d 39
       0.0001863595 -0.00014532165 0.0004832718 0.00021118183
0003e0 21 f0 f8 39 22 58 81 b8 36 2a c9 b7 4a 92 2b b8
       0.00047481156 -6.167615e-05 -2.3980723e-05 -4.090582e-05
0003f0 62 5b dc b9 ac 7e cb b9 83 89 42 b9 26 bc c3 36
       -0.00042029755 -0.00038813555 -0.00018552509 5.833356e-06

base_model.model.transformer.h.1.attn.c_attn.lora_A.weight f4 [1, 768]
000000 5a c0 39 bc 9f d5 97 bc 56 ad 98 bb 61 a2 89 bc
       -0.011337364 -0.01853448 -0.004659335 -0.016801061
000010 eb 38 83 bc 54 3c 65 3c 02 4e 2e bc ce d6 69 3c
       -0.016018352 0.013991434 -0.010638716 0.014272405
000020 b5 58 d6 3c 33 8b d9 3c 63 1a 19 3d 94 b5 0d bd
       0.026165346 0.026555633 0.03737868 -0.034596995
000030 48 a5 27 bc 66 9f f7 3b 7e e5 97 3c 3b d6 a2 bc
       -0.010232277 0.0075568436 0.018542048 -0.019877544
000040 9c dd c7 bc ac 47 30 3c 9a 46 11 3d 9b 5b c6 3a
       -0.024397664 0.010759275 0.03546772 0.0015133502
000050 02 82 98 bb 91 14 fc 3c be 34 db 3c 01 97 01 bd
       -0.00465417 0.030771526 0.026758548 -0.03163815
000060 ce 3c d4 bb 43 43 0f 3d 9c 97 02 3d c3 ea ab bb
       -0.006476975 0.034976255 0.031882867 -0.0052464916
000070 3f 40 d8 3c 64 3d 1a 3d c9 76 84 bc b4 d6 04 3c
       0.026397822 0.037656203 -0.016169922 0.00810783
000080 59 b2 de bc 56 6a d5 3c 05 25 22 bc 64 a8 93 3c
       -0.027184652 0.026051681 -0.009896521 0.01802463
000090 31 1d 07 bd 0c 7d 0d bd a5 01 a1 3b f5 03 4a bb
       -0.032986823 -0.034543082 0.004913526 -0.0030825112
0000a0 9c 44 0a bd dc 13 ec bc 63 e2 4e 3a f3 8f 43 3c
       -0.033756837 -0.028818063 0.00078920106 0.011936176
0000b0 4a 08 eb 3c 28 d8 d1 3c a4 9c e6 bc 76 73 dd 3c
       0.028690476 0.025615767 -0.028150864 0.027032595
0000c0 6c 20 e5 3c cc 98 35 bc bc e1 6d 3c 58 97 05 bc
       0.027969562 -0.011083793 0.014519151 -0.008153759
0000d0 e5 ec a8 bc 40 f1 a3 3b e5 ea 02 3d 62 34 19 bd
       -0.020620773 0.0050031245 0.031962294 -0.03740347
0000e0 7c c5 85 bb 99 91 05 bd 04 99 6e 3c f0 51 40 bc
       -0.00408238 -0.032609556 0.014562849 -0.011738285
0000f0 e2 58 8f 3c 11 73 fd bb f5 5f e7 3b 37 bf 57 3a
       0.017498437 -0.0077346643 0.0070609995 0.00082300924
000100 cd 9f 0a bd 03 43 b6 bc 91 1a ec 3c 53 ea c6 bc
       -0.033843804 -0.02224875 0.028821262 -0.024281656
000110 44 3b c0 bc a9 95 ed bc 22 4f 16 3d 40 4e 6f bc
       -0.02346576 -0.029002028 0.03669656 -0.014606059
000120 f8 51 3e bc bd 0f ed 3b 84 dd 5f bb 77 e2 d1 3a
       -0.011616223 0.007234542 -0.0034159133 0.0016012926
000130 d3 2a 16 3d f8 a1 76 bc a2 4a 0f 3d cb 6b 49 3c
       0.036661934 -0.015053265 0.034983285 0.012293766
000140 07 ac 8b bc a1 9c 2c 3a d3 e7 47 bc 4c 8c 0b bd
       -0.017049802 0.0006584619 -0.012201267 -0.034069344
000150 a5 3d 05 bc 4a 39 c0 3c 03 0e 0a 3d 1c fc dc 3c
       -0.008132373 0.023464818 0.03370477 0.026975684
000160 8e ae b0 3c f5 21 cf 3c 9e 7c 0e 3d e9 b6 5f bc
       0.02156761 0.025284747 0.034786813 -0.013654449
000170 bd 3b ba ba 85 7f 97 3b a0 f2 17 3d 60 dd 6d 3c
       -0.0014208477 0.004623356 0.03709662 0.014518112
000180 1a fe 10 3d 84 2c dc bb c5 16 af bc 7e 3d 95 3b
       0.03539858 -0.006719174 -0.021373162 0.0045544496
000190 d0 06 00 3d 0a 2e e7 3b e3 91 42 3c 3a 56 b9 3b
       0.031256497 0.007055049 0.011875602 0.005656031
0001a0 96 19 01 3d 37 9b 92 bb c2 45 ae bb a2 2f 0b bc
       0.03151854 -0.0044740695 -0.0053183744 -0.008495243
0001b0 6b 4f 4c bc df 12 c1 3c 95 e0 46 bc 17 62 09 bc
       -0.012470107 0.023568569 -0.0121385055 -0.008385203
0001c0 ac d2 e1 3a 2d db 94 3a c0 6f cc ba b7 a8 51 3c
       0.0017228923 0.0011356823 -0.0015597269 0.012796572
0001d0 d8 98 82 bc ab c6 5a 3c b6 3a 81 bc ef 4a a2 bc
       -0.015942022 0.01335303 -0.015775066 -0.019811122
0001e0 74 4a f5 3c 52 b3 a8 3c 19 49 06 3d 97 dd 60 3c
       0.029942729 0.02059332 0.032784555 0.013724706
0001f0 2a 58 ac 3c 68 aa 2b bc fd e3 8d 3c 79 05 b5 3c
       0.021038134 -0.01047764 0.017320627 0.022097336
000200 7f f7 bf bc 62 65 9e 3c 2c fc 2f 3c 61 c4 fb 3c
       -0.023433445 0.019335452 0.010741275 0.03073329
000210 2d f7 05 3d bc e2 02 3d 54 4a 05 bd 1d 63 82 3c
       0.03270643 0.031954512 -0.032541588 0.015916402
000220 02 4b 4f 3c e3 af 8e bb c5 91 26 bd 4c 19 b3 3c
       0.012652161 -0.0043544634 -0.04066636 0.021862648
000230 b6 bf da bc 4f 37 15 3d ae 0f 71 38 9b e1 9f bc
       -0.026702743 0.0364297 5.747348e-05 -0.019516757
000240 97 54 98 3c 15 d0 8e 3c 5f 40 cb 3b ba 3d fb 3c
       0.018595023 0.017433206 0.006202742 0.030669082
000250 06 9c 11 3d ae 43 eb bc 3f a2 ea bc 36 95 0f bc
       0.035549186 -0.028718796 -0.028641818 -0.008763602
000260 c6 ee 0a 3d d2 83 14 3d 1e f8 a1 bc 96 94 eb 3c
       0.03391912 0.036258526 -0.019771632 0.028757375
000270 63 27 e8 3c 77 f7 66 bc 2e e0 cf 3c 3e 80 18 3c
       0.028339094 -0.014097086 0.025375452 0.009307919
000280 c3 81 77 bc 47 77 11 3d aa fd 31 3c d4 f2 90 bc
       -0.015106621 0.035514142 0.010863701 -0.017693914
000290 86 bc fc 3b 3c 27 03 3d b8 bc c0 bc 40 ca ad 3b
       0.0077129034 0.03201984 -0.023527488 0.005303651
0002a0 3e fd 7d 3c 3c 8e a4 3c d8 6d 3a bc ae 00 99 3c
       0.015502272 0.020087354 -0.011378728 0.018677082
0002b0 3c 18 b7 bc 7f f1 89 bb 0e 31 40 3c bd 3d 7c 3c
       -0.022350423 -0.004209697 0.011730446 0.015395579
0002c0 62 91 0e 3c 1e 9d d9 bc 53 38 cf bb 91 7e 2c 3b
       0.008701654 -0.026564177 -0.006323853 0.0026320557
0002d0 08 6e de bc 67 04 3a bc bb 7e b5 3c 75 27 e8 bc
       -0.027152076 -0.011353589 0.022155156 -0.028339127
0002e0 da d6 7b 3c d9 07 32 3c 98 94 8c bc a0 a6 f5 3c
       0.015371049 0.010866129 -0.017160699 0.02998668
0002f0 8b db a8 bc f4 70 77 3c 07 e2 ec 3c b9 29 7a 3c
       -0.020612499 0.015102614 0.028916372 0.0152687365
000300 d1 af 14 3d 98 ad c6 3c e0 39 02 bd 22 e8 7b 3c
       0.036300484 0.024252698 -0.031793475 0.015375169
000310 d7 f0 e6 3b 28 e0 99 3c 76 a1 ae 3c f4 91 4c bb
       0.0070477533 0.018783644 0.021317225 -0.0031214925
000320 f7 74 45 3b a6 7a dd 3c 54 8b e1 3c e3 ef 67 3a
       0.003012953 0.027036022 0.027532257 0.00088476966
000330 34 7d 1f bc 1b a0 09 3d 43 95 ef bc 17 89 d9 3c
       -0.009734441 0.033599954 -0.029245978 0.026554627
000340 57 75 bc 3b cd a8 14 3d 43 96 a7 bc 07 df e0 bb
       0.0057512927 0.036293793 -0.020457393 -0.0068625244
000350 f7 9d f1 3b fe f8 75 3c 9d f2 e3 bc 93 37 ec 3b
       0.007373567 0.015012978 -0.027825648 0.0072087734
000360 fa 63 9b bb 42 71 f8 bc ee c5 f9 3c 8d 8d b8 ba
       -0.0047421427 -0.030327443 0.030489888 -0.0014080271
000370 0f 73 4f bc 2d 81 b3 3c 68 ff 2e bc 71 2a 6e 3a
       -0.012661709 0.021912182 -0.010681011 0.0009085304
000380 fb cd 59 bc fa d4 ec 3b 9d a1 66 3a bd 60 8a 3c
       -0.0132937385 0.007227537 0.0008797886 0.016891832
000390 de f8 07 3d bd 60 c2 bc 8a d7 b7 bc 52 12 a3 3c
       0.033196323 -0.023727769 -0.022441644 0.019906197
0003a0 e9 09 25 bc 96 65 53 3a 5c db fe bc 74 10 85 bb
       -0.010073164 0.0008064149 -0.031110458 -0.0040607993
0003b0 ea 7b 07 bd 82 4b eb bc fc 81 b3 3c f0 40 0a 3d
       -0.033077158 -0.028722528 0.021912567 0.033753335
0003c0 8d 63 e6 b9 55 e1 05 3d 7a 33 d3 3c 4f b3 59 bc
       -0.0004394319 0.032685596 0.025781382 -0.013287379
0003d0 0c c6 a1 bc 31 bf 72 3c 56 bd 8c 3c a1 e1 fb bc
       -0.019747756 0.014816091 0.017180126 -0.030747237
0003e0 4d b5 c6 3b 0f 6b 47 bc b2 0c 93 3c ec 3e 8e 3b
       0.006064093 -0.012171521 0.01795039 0.004340997
0003f0 8d 85 13 3d 14 d9 db 3c db f4 a2 3c 93 50 29 bc
       0.036016036 0.02683691 0.019892147 -0.010334152

base_model.model.transformer.h.1.attn.c_attn.lora_B.weight f4 [2304, 1]
000000 34 6e 3d 39 81 10 28 b8 1d 68 a0 b9 98 83 80 b9
       0.00018065498 -4.006969e-05 -0.0003059515 -0.00024512107
000010 12 c3 0e 39 05 2f 1e ba ca f3 53 39 10 c2 b6 b7
       0.00013614845 -0.0006034228 0.00020213347 -2.1786458e-05
000020 f6 17 87 3a 19 a2 c8 39 be d7 49 b9 00 93 14 3a
       0.0010306824 0.00038267745 -0.00019249224 0.00056676567
000030 61 8e af 39 d5 80 91 39 7d 0e 5e 39 ed ba cc 38
       0.00033484682 0.00027752543 0.00021176967 9.762296e-05
000040 f9 3c 9e 38 2e c2 d5 b9 17 60 10 b9 87 2b 4a ba
       7.545384e-05 -0.000407712 -0.00013768706 -0.00077121746
000050 25 8c 7c 39 11 6f 24 ba fb b2 24 ba dc 6a ad 39
       0.000240848 -0.00062726537 -0.00062827737 0.00033076748
000060 4e 1a c9 b8 0f 0b 44 ba 30 44 1c 3a 7f e1 e1 b9
       -9.5893265e-05 -0.00074784545 0.00059610885 -0.00043083352
000070 bc 59 95 b8 8d 43 1f 3a 9e cf ee 38 8a 82 8a b9
       -7.121588e-05 0.00060754345 0.00011387396 -0.0002641867
000080 8b f4 84 39 61 95 b9 39 4e 9c 3f 39 ad 57 c4 39
       0.000253592 0.00035397246 0.00018273407 0.00037449357
000090 8a 51 e1 39 ad e6 00 ba 2e cc cc 39 48 c6 69 b9
       0.00042976096 -0.0004917186 0.00039062038 -0.00022294477
0000a0 43 a1 3e b9 9f 76 32 3a b8 9d a0 39 e0 66 62 38
       -0.00018179887 0.0006807837 0.00030635088 5.397841e-05
0000b0 04 69 04 ba cc 6f 64 b9 e1 9d f0 39 20 f5 89 39
       -0.0005051049 -0.00021785422 0.00045893996 0.0002631331
0000c0 5f 44 bc 38 7b ad 8f b7 ea f5 c0 b9 df ed 14 b8
       8.977274e-05 -1.7127712e-05 -0.00036804314 -3.5507484e-05
0000d0 a0 7a 75 b8 3a 8c 6d b7 75 8f cd 39 14 00 01 37
       -5.8526755e-05 -1.415895e-05 0.0003920753 7.689017e-06
0000e0 0b a4 02 3a 6c 24 75 39 1e f7 29 ba 0b d5 73 b9
       0.0004983551 0.00023378589 -0.0006483662 -0.0002325365
0000f0 5b 25 38 b9 47 0a 8f b9 b9 dd 69 b9 8b 79 d5 38
       -0.00017561523 -0.00027282743 -0.0002230321 0.000101792706
000100 3f 0d 0f b9 43 21 d8 ba 6b 64 63 3a 6f 24 87 ba
       -0.00013642477 -0.0016489405 0.0008674326 -0.0010310541
000110 a9 ed 46 3a ee 87 bd ba cb af 5a ba 15 83 fa 39
       0.00075885147 -0.0014460066 -0.0008342235 0.0004778138
000120 33 50 32 ba 03 c9 76 ba 8d ae fa 39 1b 51 49 ba
       -0.0006802112 -0.00094141084 0.00047813766 -0.0007679627
000130 dd 78 45 3a dd 2d 8f 3a 67 94 7d ba 2e 68 e6 37
       0.00075329636 0.0010923703 -0.0009673298 2.7466649e-05
000140 29 59 80 b9 49 f3 71 3a 86 11 cd b8 eb a4 b2 ba
       -0.00024480492 0.0009229673 -9.778426e-05 -0.0013629472
000150 2d 2e 9b b9 bb b5 b8 ba 6e 2c 8c ba b3 df c3 b9
       -0.00029598307 -0.0014092246 -0.0010694393 -0.00037359967
000160 e2 6a a9 b9 e3 4c e5 b9 eb 72 5b b9 73 e9 93 3a
       -0.00032313826 -0.0004373557 -0.00020928278 0.0011284783
000170 b8 a1 65 ba 40 08 6e 3a 5e ca a3 ba bf a8 93 ba
       -0.0008759755 0.0009080209 -0.0012496223 -0.00112655
000180 b8 6e 88 b9 ff f1 c9 ba b6 6d 8d ba 36 41 4b 3a
       -0.00026022433 -0.0015407203 -0.0010790143 0.00077535526
000190 12 28 99 3a 3b 53 3e ba d5 5f a7 ba 99 a7 08 ba
       0.0011684916 -0.0007260327 -0.0012769649 -0.0005212962
0001a0 eb 77 3e ba df 9a 54 3a bd ae ca ba 30 b2 8e b9
       -0.0007265794 0.0008110236 -0.0015463453 -0.0002721711
0001b0 05 ad fe b9 fe bd 1f ba 5b f3 b3 ba 02 de 91 3a
       -0.00048575565 -0.00060936797 -0.0013729142 0.0011128786
0001c0 fb 46 0b ba dd 5b 3a b8 62 aa 99 3a 3a 7e 6b 39
       -0.0005313006 -4.443141e-05 0.0011723752 0.0002245837
0001d0 91 04 88 ba 92 36 be b9 4a 69 4a ba 79 4f 68 3a
       -0.0010377337 -0.00036280282 -0.0007721378 0.000886194
0001e0 6b c1 1f ba 0b 44 3e 3a 1b 26 d5 3a ed be 9f ba
       -0.000609419 0.0007258064 0.0016261967 -0.0012187638
0001f0 34 a9 4a 3a 77 c7 5c ba 8e 87 98 3a b5 e9 d1 b9
       0.00077309017 -0.00084220566 0.0011637078 -0.00040037712
000200 36 24 87 b9 55 90 28 37 7c 72 d9 39 89 21 08 b9
       -0.00025776186 1.0047185e-05 0.00041474763 -0.00012982464
000210 d9 1d 57 b9 72 68 66 39 06 79 aa 39 fa 87 50 b9
       -0.00020515117 0.00021973418 0.00032515096 -0.00019887081
000220 cd 43 18 39 62 46 91 b8 26 e9 b8 b9 c9 1d e3 b7
       0.00014521107 -6.9272486e-05 -0.00035268924 -2.7074379e-05
000230 82 62 2e 39 21 03 2f 39 34 89 a1 38 c3 3e 09 ba
       0.0001663063 0.00016690466 7.702634e-05 -0.00052354875
000240 57 fe 37 39 11 e8 05 39 49 9a a2 39 3a 84 84 b8
       0.00017546989 0.0001277032 0.00031014 -6.3188796e-05
000250 81 88 8c 38 9f e5 c6 39 6c 01 8b b8 8a fe e7 39
       6.701146e-05 0.00037936584 -6.628301e-05 0.000442494
000260 87 01 c0 b8 79 9e d1 37 84 18 2b b8 a0 6d c0 38
       -9.155558e-05 2.4988536e-05 -4.079241e-05 9.175693e-05
000270 27 a3 2d b9 52 49 49 38 2f 69 6d 39 70 79 0c b7
       -0.00016559345 4.799042e-05 0.00022641265 -8.372925e-06
000280 42 12 36 37 92 ad 00 b9 26 54 85 39 ea a8 c4 39
       1.0852296e-05 -0.00012271691 0.00025430432 0.00037509884
000290 d8 a0 b6 b9 0e 63 18 b9 71 8b 8a b9 88 11 00 3a
       -0.00034833583 -0.0001453275 -0.00026425303 0.0004885425
0002a0 6a eb 93 b9 f5 62 29 3a 9c 0c 16 b8 f5 31 99 39
       -0.00028213422 0.0006461584 -3.577453e-05 0.00029219655
0002b0 82 cd 95 39 c3 df 2c b8 70 78 9b b9 f2 8a 8d 39
       0.0002857261 -4.121639e-05 -0.00029653637 0.00026997138
0002c0 55 a7 66 39 db 2c 05 b9 e9 c9 25 b9 1c 8a 06 39
       0.00021996845 -0.00012700578 -0.00015810844 0.00012830686
0002d0 3c 55 11 b9 d5 5f ba 38 1d 9c ef b9 ee ff f2 b8
       -0.0001386003 8.887021e-05 -0.00045701946 -0.0001158713
0002e0 c8 25 d9 34 23 10 83 39 0e d1 37 b8 e0 0b c1 b8
       4.044689e-07 0.0002499829 -4.3825297e-05 -9.205169e-05
0002f0 e9 19 b1 39 d7 bc 86 39 61 d8 2b 39 82 b8 93 39
       0.00033779375 0.00025699168 0.00016388438 0.00028175494
000300 29 4c e2 39 6f 55 b7 39 7a 4d c4 38 02 92 2b 3a
       0.00043162823 0.00034968133 9.3604394e-05 0.0006544889
000310 17 e1 a1 b8 a5 d1 ff b9 47 6a 69 b9 57 7e 89 39
       -7.7190045e-05 -0.00048793587 -0.00022260203 0.00026224807
000320 06 f0 93 b9 2d 0d f1 b8 cc 8d 76 b4 b9 dc 4f 39
       -0.00028216856 -0.0001149423 -2.2962121e-07 0.00019823284
000330 3e ac ca b9 6c 81 16 b9 10 6c 09 b9 e4 b2 a3 38
       -0.00038656773 -0.00014353328 -0.00013105595 7.805767e-05
000340 b0 6c 19 38 96 db a8 38 cb fa 7e 39 15 56 7d b9
       3.6579266e-05 8.051765e-05 0.00024316755 -0.00024160028
000350 58 31 f2 38 5e 26 22 b9 43 66 8a 38 e0 55 76 b9
       0.0001154865 -0.00015463817 6.5994005e-05 -0.00023492379
000360 14 d7 8c 38 b0 eb 12 39 aa ab f0 39 3a 73 ea 38
       6.715782e-05 0.00014011445 0.00045904267 0.00011179452
000370 26 cd c0 b8 3c 66 a9 b9 12 49 57 b9 e5 de ca 38
       -9.193485e-05 -0.00032310362 -0.00020531219 9.673628e-05
000380 01 a6 70 b9 6c 5f 5a 39 a9 b0 82 38 b0 1f 8a 37
       -0.00022950025 0.00020825648 6.2317886e-05 1.6465638e-05
000390 73 64 52 38 d7 4d 85 38 57 6c e4 b9 31 92 85 38
       5.0161452e-05 6.356433e-05 -0.00043568268 6.3691645e-05
0003a0 49 ff 1d b9 15 a4 75 b9 6f 4c be 38 3d 48 3e b8
       -0.00015067788 -0.00023426146 9.074143e-05 -4.5366807e-05
0003b0 1e 15 cb 38 c1 7c b4 38 5d 08 b7 38 07 e2 70 39
       9.683728e-05 8.606306e-05 8.727678e-05 0.00022972385
0003c0 4d e0 fe 37 e2 87 c1 b9 73 b9 f8 38 55 57 cd 38
       3.0383608e-05 -0.0003691307 0.00011860104 9.7914286e-05
0003d0 00 dd 2d b9 cb aa 31 ba bf bf 85 b8 6a ab 5a 39
       -0.00016580895 -0.00067774643 -6.37765e-05 0.00020853957
0003e0 e5 73 04 b9 11 52 0d b9 e5 97 07 b9 54 9e 28 b7
       -0.00012631675 -0.0001347738 -0.00012931188 -1.0050444e-05
0003f0 9c 29 17 ba 2a d4 05 37 6d 7f ca b8 11 3f 5d 39
       -0.0005766393 7.976816e-06 -9.6558455e-05 0.00021099696

base_model.model.transformer.h.2.attn.c_attn.lora_A.weight f4 [1, 768]
000000 92 ce d5 bc 62 48 d8 3c 26 5c 9b bc a3 6e 32 3c
       -0.026099477 0.026401702 -0.018964838 0.010890636
000010 26 8d 15 3c 7b ff be 3c 8b 0d 09 bb f0 3c 1a bd
       0.009127891 0.023315182 -0.0020912613 -0.03765577
000020 20 a4 dc bc f4 6d 8c 3c c2 b5 1a bd 15 82 ca 3c
       -0.02693373 0.017142273 -0.037770994 0.024720231
000030 34 bd b0 3c ef 4b f5 3c 9b 18 f3 bc 70 69 0f bd
       0.021574594 0.029943435 -0.029674819 -0.035012662
000040 5f bb 5c bc 39 ba f6 3a ca e4 8d bc 3a c1 ca bc
       -0.013472407 0.0018823809 -0.01732101 -0.02475034
000050 3c 6f d2 3c 18 a8 1a 3d a6 26 94 3a b0 ee 38 bc
       0.025687806 0.037757963 0.0011303022 -0.011287376
000060 27 91 68 bc 02 62 77 3b 5b 46 90 3c 0b ed a2 bb
       -0.014194763 0.0037747626 0.017611673 -0.0049721054
000070 ce 1e 6b 3c b2 5a a8 bc 93 b2 51 bb be 2a 14 bc
       0.014350606 -0.02055106 -0.0031997308 -0.009043394
000080 11 c9 5f 3c e6 39 85 3c 7f e4 0b 3b 71 4b ca 3c
       0.013658778 0.01626296 0.002134591 0.024694176
000090 b9 6a f2 3c b1 d0 ab bc c2 29 15 3c 77 fd be bc
       0.029591905 -0.020973535 0.009104194 -0.02331422
0000a0 76 12 56 3c 41 cc 08 bd 80 05 06 3c 1a be d2 bb
       0.013065925 -0.033397917 0.008180022 -0.0064313533
0000b0 cf 84 af 3c cc f1 f6 bc 18 85 b5 3c ef fd 9f bc
       0.021425633 -0.030144595 0.02215819 -0.019530265
0000c0 c4 df 02 3d b9 19 d5 ba 27 d7 a3 bb 8a d3 64 bc
       0.03195168 -0.0016258276 -0.0050000134 -0.0139664505
0000d0 c5 ec a8 3b cf ca 68 3c a6 e2 ca 3b 62 1e a1 bc
       0.0051551783 0.01420851 0.0061915694 -0.019667808
0000e0 c6 3e 4b 3c ba a4 38 3c 90 2c c6 ba 88 dd 79 bc
       0.012405103 0.011269743 -0.0015119482 -0.015250571
0000f0 55 b4 e7 3c 47 b3 11 3d 57 6e 82 bc d7 0e c5 bc
       0.028284231 0.035571363 -0.015921755 -0.024054928
000100 e3 04 8b 3c a4 31 95 3c 45 d8 c8 3c c1 1d 9f 3c
       0.016970104 0.018212147 0.024517188 0.019423367
000110 0c 93 1c 3d cf 0f 20 bc a3 01 12 3a 0c e4 b9 bb
       0.038226172 -0.009769394 0.0005569702 -0.0056729373
000120 4f 20 d6 3c fb 03 07 3d 36 d6 df 3c 7b 19 21 3b
       0.026138453 0.03296278 0.027323823 0.0024581838
000130 17 55 3b 3c 15 5a d6 bc 71 a0 5d 3b 2e 03 58 bb
       0.011433861 -0.026166001 0.0033817554 -0.003296088
000140 64 f1 56 bb 54 74 11 3d 55 0a e7 3c 9d 88 b6 bc
       -0.0032797689 0.03551133 0.028203169 -0.02228194
000150 72 da 51 3c a5 52 d6 bc ba 9a 5d bc 03 3a 11 3d
       0.012808429 -0.026162455 -0.013525659 0.035455715
000160 ca b2 f8 bc 41 29 7b 3c a5 5d b0 3c e5 37 ec 3c
       -0.03035869 0.01532966 0.021529028 0.028835246
000170 49 44 ac 3c 3c c8 d6 3b 16 31 f8 ba 8d 0f 93 ba
       0.021028655 0.0065546315 -0.0018935527 -0.0011219844
000180 0b 74 85 bc 67 c0 93 bc b7 14 46 bc 8c d9 9e 3b
       -0.016290685 -0.01803608 -0.0120899 0.004847711
000190 ea d4 c4 bc 39 af 47 3c ea 92 5e 3c a4 fc 51 bb
       -0.024027307 0.012187772 0.013584832 -0.0032041455
0001a0 5e 46 dc 3b 47 c8 c8 3c 7e cc 93 bc eb 3a ec 3c
       0.0067222556 0.024509562 -0.018041845 0.028836688
0001b0 14 db 05 3d e2 9f ed 3b 46 c1 84 3c 6f 15 a2 3c
       0.032679632 0.0072517255 0.016205441 0.019785611
0001c0 71 19 27 3b 5a 7f de ba a5 c9 c1 bc fe b1 05 bd
       0.0025497342 -0.001697521 -0.023655722 -0.03264045
0001d0 16 51 85 3c 55 79 66 3c 30 0f 82 bb b1 2b ad 3c
       0.016274016 0.014067014 -0.0039690956 0.021138998
0001e0 58 c1 03 3d a7 a8 13 3d f5 12 c7 bc fb b5 85 bc
       0.03216681 0.03604951 -0.024301032 -0.016322127
0001f0 84 a0 b8 3a d7 60 47 3c 37 0b 07 bd f7 b2 db bb
       0.0014085923 0.0121690845 -0.03296968 -0.006704684
000200 51 c7 9b bb ef a2 0e bc 69 5c 06 3d 5e 23 8c 3c
       -0.004753985 -0.008705839 0.032802973 0.017106708
000210 1b ad 98 bc d2 07 f3 bc 63 3c 6f 3c 3d 5a 6f 3c
       -0.01863723 -0.029666815 0.0146018 0.014608917
000220 50 6c 03 bd 45 97 20 3c 91 2a b7 3c 79 97 0a 3d
       -0.032085717 0.0098016905 0.022359164 0.03383586
000230 f2 46 1b bc be b5 aa 3c db d1 40 3c 97 68 91 bc
       -0.009477364 0.020838615 0.011768783 -0.017750068
000240 2c 9a 38 bc 37 7c 05 3d a0 47 01 3d fa 1f 3c 3c
       -0.011267226 0.032589164 0.031562448 0.011482233
000250 92 2e 0c 3d 05 a9 cd bc 2b fe 16 bc 3c b7 45 ba
       0.0342241 -0.025105009 -0.009215872 -0.00075422577
000260 8b 43 da 3c 79 7e 58 bc 2a 16 1a 3d 76 25 9c ba
       0.026643535 -0.013213747 0.037618794 -0.001191302
000270 a7 95 9e 39 f9 2d 13 bd 81 61 e3 bc d7 87 e6 bc
       0.00030247608 -0.035932515 -0.027756454 -0.028140945
000280 40 8e 7c bc d8 f0 84 bb fa dd 2f bc ba 1c 3f bc
       -0.015414774 -0.004057031 -0.010734076 -0.011664564
000290 dc cb 9e bc f7 09 67 3c 6d 8d b0 bc fe e7 a4 bc
       -0.019384317 0.014101497 -0.021551812 -0.020130154
0002a0 8a fd 88 3c fc ef 08 3d 67 2e da bc 42 54 1c 3c
       0.01672246 0.033431992 -0.026633454 0.009541573
0002b0 a1 b3 06 bb a1 26 eb 3b 86 5c 65 3c d1 db ab 3c
       -0.0020553845 0.007176236 0.01399911 0.02097884
0002c0 63 a7 d3 ba 56 59 16 3d cb cd c4 3c 8e 54 bc ba
       -0.0016147908 0.03670629 0.024023911 -0.0014368461
0002d0 08 d3 da 3b a4 33 01 3d 70 b0 71 3c 2e 0d f4 bb
       0.006677989 0.03154339 0.014751539 -0.00744786
0002e0 66 21 42 3b 81 7d c6 3b d1 76 1e 3c 9a d0 bc 3c
       0.0029621958 0.0060574417 0.009671883 0.023048688
0002f0 5e 06 af bc 81 83 17 3d b3 7d 0f 3d d5 fb a5 3c
       -0.02136534 0.036990646 0.035031985 0.020261684
000300 f0 f9 f9 3c 3e 60 9f bc cd 75 4d bc 40 ba e4 bc
       0.030514687 -0.019455072 -0.012540293 -0.027920842
000310 f8 90 82 3c 9a 51 55 3a ea 58 81 bc d3 88 b8 3c
       0.015938267 0.0008137465 -0.015789468 0.02252618
000320 65 d4 b0 bc 16 d9 b9 bc 42 15 f1 3c fd 84 01 bd
       -0.021585653 -0.022686522 0.029429082 -0.031620968
000330 ed 34 91 bc 4e 4e 09 bd 60 9a b5 bc a7 c4 01 bd
       -0.017725432 -0.033521943 -0.022168338 -0.031681683
000340 4c 82 e9 bc 78 08 bf 3c 34 95 11 bd 2b 5f f8 3c
       -0.028504513 0.023319468 -0.03554268 0.030318817
000350 e1 70 db 3b 3f a1 28 bd 37 07 a1 bb 2c 55 fc 3c
       0.006696806 -0.0411694 -0.00491419 0.030802332
000360 24 84 11 3d 39 6d 19 3b 50 b4 1a 3c d5 55 4d 3c
       0.03552641 0.002341105 0.009442404 0.012532671
000370 b2 f2 ae bc 57 c3 33 3c 4c b0 6c 3b a4 6b 0b 39
       -0.02135596 0.010971866 0.0036115823 0.00013296172
000380 86 9f e5 3c 53 cf f6 3c a8 1c 62 bc ab d2 05 3d
       0.028030168 0.030128157 -0.0138007775 0.03267161
000390 bb 2f 08 bd 1c 1f ed 3c f4 fc f3 bc c6 85 72 3a
       -0.033248644 0.028945498 -0.029783703 0.0009251501
0003a0 3b 9a fb 3c 21 2d 41 3c 55 9d f1 bb 2d 42 da 3c
       0.030713191 0.011790545 -0.007373492 0.026642883
0003b0 a5 cc 0c bd db ea bf bc 27 02 9e 3b 54 d8 0f ba
       -0.03437485 -0.023427418 0.004822034 -0.00054872525
0003c0 51 4c a8 bc 2e 7c b2 bc d6 c9 e8 3b 56 67 0c bb
       -0.020544203 -0.02178773 0.007104139 -0.0021423898
0003d0 e2 06 a7 3c 8f 5a 16 bb 4c 17 1e 3c 5c 95 15 bc
       0.020389024 -0.002294216 0.009649109 -0.009129848
0003e0 df 6d 97 3c 1f 60 84 bc 92 0b 83 bc d2 9f 1e bb
       0.018485008 -0.016159115 -0.015996728 -0.0024204147
0003f0 56 e2 e9 3c 41 51 f0 38 30 2f a5 3b ef 31 ad 3c
       0.028550308 0.000114592265 0.0050410256 0.021141974

base_model.model.transformer.h.2.attn.c_attn.lora_B.weight f4 [2304, 1]
000000 d0 e8 f9 b9 b4 0d 1c ba 59 2c 0f ba be 82 f0 39
       -0.0004766644 -0.00059529697 -0.00054616254 0.00045873778
000010 1a 84 f0 39 65 7a af 3a 37 2d 33 3a 1c 3f 35 39
       0.0004587479 0.0013387917 0.00068350456 0.00017285015
000020 5a d2 6e ba 64 e5 6e 37 79 fe 93 3a 30 10 80 ba
       -0.00091103243 1.4239315e-05 0.0011291049 -0.0009770449
000030 28 b9 66 3a da 4b e2 38 26 5a ff 3a b2 82 cb b9
       0.0008801394 0.00010790648 0.0019481822 -0.00038816553
000040 30 0d 9f b9 f5 29 0d b7 a6 cb 64 b9 6b d6 a1 b9
       -0.0003033667 -8.414024e-06 -0.0002181964 -0.00030868067
000050 01 74 44 3a a5 a0 eb 39 da ca 58 b9 04 e0 0f 36
       0.00074940926 0.00044942382 -0.00020674933 2.1439055e-06
000060 4e 7b 31 b9 48 94 8e ba d6 ac e0 38 ba 26 4d 3a
       -0.0001692597 -0.0010877931 0.000107133455 0.00078259
000070 46 c7 cc b9 bc 30 99 ba e4 2d 1b 3a 8a de 0a 39
       -0.00039058382 -0.0011687498 0.0005919619 0.00013243608
000080 bf ba 62 ba 69 b3 d7 b9 b3 e0 43 b9 54 50 33 3a
       -0.0008649043 -0.00041141667 -0.00018680356 0.0006840278
000090 a7 8e 82 3a 42 c8 1c 3a 55 48 3f 3a 2e a4 8c ba
       0.0009960727 0.00059807685 0.000729685 -0.0010730082
0000a0 87 39 1b 3a 71 bd 2d 3a ef eb 13 b9 c2 52 b8 39
       0.0005921353 0.0006627655 -0.00014106905 0.00035156874
0000b0 a9 e5 95 ba 09 93 82 b9 30 54 16 39 a3 e7 ae 39
       -0.0011436242 -0.00024905082 0.00014336477 0.0003336045
0000c0 7a 0f e6 b9 68 cd 15 3a 0f e7 97 3a d8 09 b6 ba
       -0.0004388055 0.0005714507 0.0011589247 -0.0013888432
0000d0 05 80 c1 b9 96 1b 14 39 71 1b e5 b8 54 65 43 ba
       -0.0003690721 0.00014124656 -0.00010924682 -0.0007453759
0000e0 37 df 5c 3a 90 bd 53 ba c7 ab a7 ba fc 9a b1 ba
       0.00084255956 -0.0008077258 -0.0012792283 -0.0013550217
0000f0 a2 47 53 b9 05 12 84 3a bc 3d 34 39 88 62 38 ba
       -0.00020149213 0.0010076171 0.00017189136 -0.0007033725
000100 dc aa 0e 3a b3 5b 89 b8 2e e0 90 3a 73 a7 3a 3a
       0.000544233 -6.5497494e-05 0.0011053139 0.0007120289
000110 4c ee c2 38 50 cf 48 b9 1d 9f 23 ba 10 99 50 ba
       9.295027e-05 -0.00019150716 -0.0006241666 -0.00079573784
000120 a5 ce 98 ba dd 78 74 3a 5e 0e a5 3a 4a 2b de 39
       -0.0011658265 0.00093258714 0.0012592783 0.00042375393
000130 06 a1 10 36 52 1d f4 b9 7c ac fa b9 2f a1 b1 ba
       2.15514e-06 -0.00046561152 -0.00047812227 -0.0013552065
000140 6c c2 c8 b8 88 0a 20 38 fa 78 e1 ba 7c 09 4b ba
       -9.572957e-05 3.815678e-05 -0.0017202192 -0.0007745249
000150 d1 45 1e 3a 1c ca 42 39 3d 64 ab ba bb 95 70 b9
       0.0006037625 0.00018576573 -0.0013076138 -0.00022943963
000160 8b 74 7c 3a 35 20 a1 b9 ef 07 34 b9 c4 42 48 3a
       0.00096304034 -0.0003073231 -0.00017169093 0.00076393434
000170 dc 59 10 ba 0f d8 50 3a 5a 40 1f 3a e5 a7 46 b8
       -0.0005506554 0.00079667656 0.0006074958 -4.7363243e-05
000180 81 3e 25 ba a6 b3 7e ba 28 79 76 3a b6 35 74 ba
       -0.00063035643 -0.0009716101 0.0009402209 -0.0009315865
000190 4c ba 0c 39 3c 37 00 ba 44 77 b6 3a e1 02 9e b9
       0.00013420841 -0.0004891043 0.0013921042 -0.00030138253
0001a0 02 ca a1 39 2a 44 5f 38 35 2f bb 38 4f 92 1d 3a
       0.0003085882 5.3230826e-05 8.925648e-05 0.00060108764
0001b0 68 66 a9 39 64 e8 61 ba 68 b9 d2 39 9a af 00 3a
       0.0003231049 -0.0008617698 0.0004019246 0.0004908979
0001c0 aa 99 3c 3a 35 6b 98 39 b1 f2 bb ba e7 76 8d 3a
       0.00071945286 0.00029071575 -0.0014339295 0.0010792882
0001d0 f3 4f eb 39 e4 4a c4 39 68 19 b8 39 ed b0 ef 39
       0.0004488226 0.0003743983 0.00035114144 0.00045717452
0001e0 5b 25 ba b7 83 9a d0 ba 65 29 91 39 4c 68 c8 3a
       -2.2190323e-05 -0.0015915189 0.00027687397 0.0015289872
0001f0 82 20 55 3a 3e 4d 1b b9 1c 3e 32 3a 9a 1a a9 3a
       0.0008130149 -0.00014810727 0.0006799416 0.0012901605
000200 ce f2 0c 3a e7 8f 10 3a 7b 32 fb 39 6f b8 bb b9
       0.0005376757 0.0005514607 0.00047912062 -0.00035804833
000210 8e 54 81 39 c1 e3 af 39 13 a1 b8 b9 35 81 03 ba
       0.00024667796 0.0003354829 -0.00035215224 -0.0005016507
000220 91 16 99 b9 80 2e 16 38 f5 ee 82 39 52 80 39 ba
       -0.00029199247 3.5806093e-05 0.0002497357 -0.0007076311
000230 84 3a c0 b9 8d b1 b6 39 88 b2 de 39 2b a4 bd b9
       -0.0003666469 0.0003484603 0.00042476156 -0.00036171204
000240 30 d1 12 ba 1f 25 2a 3a 01 4e cf b9 c5 ce 1c ba
       -0.00056006294 0.0006490517 -0.00039540234 -0.0005981739
000250 77 eb 84 b9 e4 6a e8 b9 97 63 d5 b9 2e a0 2c 39
       -0.00025352437 -0.00044330128 -0.00040700726 0.0001646287
000260 a5 bc 82 b9 24 7d fc 39 3c 30 bc 39 e6 51 df 39
       -0.00024936083 0.00048158423 0.00035894092 0.00042594894
000270 06 11 9d b9 44 a7 6c b9 97 85 b6 38 f5 e9 0c ba
       -0.00029958057 -0.00022569025 8.703319e-05 -0.00053754385
000280 8b c0 20 3a 72 b6 2a 39 c9 c7 a3 b9 c8 c3 66 39
       0.0006132207 0.0001628043 -0.00031238634 0.00022007443
000290 4f be 15 b9 b4 ea 4c b9 6a cc 26 ba 0d 47 46 ba
       -0.00014280643 -0.0001954239 -0.00063628575 -0.0007563688
0002a0 9c 7a 60 b9 d5 36 dc 37 72 e3 e9 b9 59 39 0c b9
       -0.0002140798 2.6251577e-05 -0.00044610683 -0.00013372804
0002b0 51 68 10 ba f4 fb 54 b9 3c 48 07 b9 71 c4 2c b9
       -0.00055087084 -0.00020311755 -0.00012901513 -0.00016476378
0002c0 95 5d f1 39 77 84 19 ba 1d 44 ca 39 ae eb 47 b7
       0.00046036826 -0.00058562256 0.0003857919 -1.1916198e-05
0002d0 4f 94 95 39 fb 7d 9a 39 7e bb 4d 39 c1 e9 d2 39
       0.00028529993 0.00029467032 0.0001962017 0.00040228482
0002e0 7e 80 84 39 3d fd 1c ba 78 23 0c 3a 68 95 f8 b9
       0.00025272736 -0.0005988663 0.00053458614 -0.00047413562
0002f0 b7 11 e2 b9 b5 89 92 39 67 ae 78 38 5f d5 7d b9
       -0.00043119278 0.0002794989 5.9290232e-05 -0.00024207447
000300 06 3a ba 38 1a a4 6e ba 10 5e 2a ba f0 3a e8 39
       8.879979e-05 -0.00091034325 -0.0006499002 0.000442944
000310 57 88 13 3a 0e 16 25 ba 12 a3 78 b8 b8 83 1f ba
       0.0005627921 -0.0006297537 -5.927968e-05 -0.0006084996
000320 4b 1e 3a 39 ce b0 76 38 2d e3 91 38 26 ed 60 3a
       0.00017749627 5.8815633e-05 6.9564536e-05 0.000858026
000330 ad b5 25 3a 12 bf 63 3a 85 9c b6 b9 5e 62 bb b8
       0.0006321322 0.00086878345 -0.0003483036 -8.935177e-05
000340 89 af 4a b8 46 37 19 39 a9 04 bc b9 6c 26 7e b9
       -4.8324033e-05 0.00014611808 -0.00035861626 -0.00024237641
000350 3f 08 80 39 fe a7 93 b9 be 85 e2 b9 bc 9a 96 b9
       0.00024420206 -0.0002816319 -0.00043205725 -0.00028725516
000360 57 ea 61 3a 95 5d e3 38 c7 0a cb b8 e4 28 8c b9
       0.0008617988 0.000108416345 -9.681802e-05 -0.00026733347
000370 42 db 7a b9 8c a7 34 3a bd 74 1a 37 e7 f7 1f ba
       -0.00023923538 0.00068914215 9.2062955e-06 -0.0006102309
000380 19 db 27 ba d6 8b 62 39 58 a4 1a 3a 1e aa 27 ba
       -0.00064031925 0.00021605132 0.0005899123 -0.0006395894
000390 79 5c 3e 3a 3c ea c1 39 79 10 85 39 9d 45 18 b9
       0.00072617043 0.00036986347 0.0002538001 -0.00014521783
0003a0 2a 2b df 39 45 bf d3 39 69 24 5e ba 56 d0 08 3a
       0.00042566034 0.00040387563 -0.00084740535 0.0005219033
0003b0 7d 17 da 39 14 aa 3f b8 d0 98 1a ba 74 47 26 ba
       0.000415977 -4.5696346e-05 -0.00058974046 -0.0006343045
0003c0 a5 b1 c3 39 6b 2b 43 b9 25 70 20 ba f6 3f 38 ba
       0.00037325654 -0.00018612824 -0.00061202265 -0.0007028574
0003d0 7c 02 0c 39 06 f5 3f ba 75 5c 21 b9 53 24 ac b8
       0.00013352366 -0.0007322583 -0.000153886 -8.208365e-05
0003e0 d5 91 30 3a e4 5f 57 3a 55 c4 2c 3a 0c bd 37 b9
       0.0006735598 0.0008215888 0.0006590535 -0.00017522665
0003f0 17 d0 de 39 48 82 d4 b9 fa f0 4b ba 59 be 94 b9
       0.0004249818 -0.00040532858 -0.0007779744 -0.0002837058
